…
Average actions of items: 34.34155047875021
The number of inters: 817741
The sparsity of the dataset: 99.8935751438182%
Remain Fields: ['transaction_date', 'customer_id', 'product_id', 'age_group', 'pin_code']
06 Jun 18:38    INFO  [Training]: train_batch_size = [128] train_neg_sample_args: [{'distribution': 'none', 'sample_num': 'none', 'alpha': 'none', 'dynamic': False, 'candidate_num': 0}]
06 Jun 18:38    INFO  [Evaluation]: eval_batch_size = [128] eval_args: [{'split': {'LS': 'valid_and_test'}, 'order': 'TO', 'group_by': 'user', 'mode': {'valid': 'uni100', 'test': 'uni100'}}]
06 Jun 18:38    INFO  SASRecFPlus(
  (item_embedding): Embedding(23813, 64, padding_idx=0)
  (user_embedding): Embedding(32267, 64, padding_idx=0)
  (position_embedding): Embedding(41, 64)
  (feature_embed_layer): UltimateFeatureSeqEmbLayer(
    (token_embedding_table): ModuleDict(
      (user): FMEmbedding(
        (embedding): Embedding(21, 64)
      )
    )
    (float_embedding_table): ModuleDict()
    (token_seq_embedding_table): ModuleDict(
      (user): ModuleList()
      (item): ModuleList()
    )
    (float_seq_embedding_table): ModuleDict(
      (user): ModuleList()
      (item): ModuleList()
    )
  )
  (user_concat_layer): Linear(in_features=192, out_features=64, bias=True)
  (trm_encoder): TransformerEncoder(
    (layer): ModuleList(
      (0-1): 2 x TransformerLayer(
        (multi_head_attention): MultiHeadAttention(
          (query): Linear(in_features=64, out_features=64, bias=True)
          (key): Linear(in_features=64, out_features=64, bias=True)
          (value): Linear(in_features=64, out_features=64, bias=True)
          (softmax): Softmax(dim=-1)
          (attn_dropout): Dropout(p=0.2, inplace=False)
          (dense): Linear(in_features=64, out_features=64, bias=True)
          (LayerNorm): LayerNorm((64,), eps=1e-12, elementwise_affine=True)
          (out_dropout): Dropout(p=0.2, inplace=False)
        )
        (feed_forward): FeedForward(
          (dense_1): Linear(in_features=64, out_features=256, bias=True)
          (dense_2): Linear(in_features=256, out_features=64, bias=True)
          (LayerNorm): LayerNorm((64,), eps=1e-12, elementwise_affine=True)
          (dropout): Dropout(p=0.2, inplace=False)
        )
      )
    )
  )
  (LayerNorm): LayerNorm((64,), eps=1e-12, elementwise_affine=True)
  (dropout): Dropout(p=0.2, inplace=False)
  (loss_fct): CrossEntropyLoss()
)
Trainable parameters: 3705536
/gpfs/home/danila/sbrs-research/.venv/lib64/python3.9/site-packages/recbole/trainer/trainer.py:235: FutureWarning: `torch.cuda.amp.GradScaler(args...)` is deprecated. Please use `torch.amp.GradScaler('cuda', args...)` instead.
  scaler = amp.GradScaler(enabled=self.enable_scaler)
…
